…
_inp)\n","speedchallenge.py:239: UserWarning: Update your `Conv2D` call to the Keras 2 API: `Conv2D(64, (8, 8), strides=(4, 4), padding=\"same\")`\n","  op_flow=(Convolution2D(64, 8,8 ,border_mode='same', subsample=(4,4)))(op_flow)\n","Model: \"model_1\"\n","__________________________________________________________________________________________________\n","Layer (type)                    Output Shape         Param #     Connected to                     \n","==================================================================================================\n","input_2 (InputLayer)            (None, 100, 100, 2)  0                                            \n","__________________________________________________________________________________________________\n","conv2d_1 (Conv2D)               (None, 25, 25, 16)   2064        input_2[0][0]                    \n","__________________________________________________________________________________________________\n","activation_2 (Activation)       (None, 25, 25, 16)   0           conv2d_1[0][0]                   \n","__________________________________________________________________________________________________\n","batch_normalization_3 (BatchNor (None, 25, 25, 16)   64          activation_2[0][0]               \n","__________________________________________________________________________________________________\n","input_1 (InputLayer)            (None, 2, 100, 100,  0                                            \n","__________________________________________________________________________________________________\n","dropout_1 (Dropout)             (None, 25, 25, 16)   0           batch_normalization_3[0][0]      \n","__________________________________________________________________________________________________\n","conv_lst_m2d_1 (ConvLSTM2D)     (None, 2, 25, 25, 16 77888       input_1[0][0]                    \n","__________________________________________________________________________________________________\n","conv2d_2 (Conv2D)               (None, 7, 7, 64)     65600       dropout_1[0][0]                  \n","__________________________________________________________________________________________________\n","batch_normalization_1 (BatchNor (None, 2, 25, 25, 16 64          conv_lst_m2d_1[0][0]             \n","__________________________________________________________________________________________________\n","activation_3 (Activation)       (None, 7, 7, 64)     0           conv2d_2[0][0]                   \n","__________________________________________________________________________________________________\n","conv_lst_m2d_2 (ConvLSTM2D)     (None, 7, 7, 64)     1310976     batch_normalization_1[0][0]      \n","__________________________________________________________________________________________________\n","batch_normalization_4 (BatchNor (None, 7, 7, 64)     256         activation_3[0][0]               \n","__________________________________________________________________________________________________\n","batch_normalization_2 (BatchNor (None, 7, 7, 64)     256         conv_lst_m2d_2[0][0]             \n","__________________________________________________________________________________________________\n","dropout_2 (Dropout)             (None, 7, 7, 64)     0           batch_normalization_4[0][0]      \n","__________________________________________________________________________________________________\n","flatten_1 (Flatten)             (None, 3136)         0           batch_normalization_2[0][0]      \n","__________________________________________________________________________________________________\n","max_pooling2d_1 (MaxPooling2D)  (None, 6, 6, 64)     0           dropout_2[0][0]                  \n","__________________________________________________________________________________________________\n","dense_1 (Dense)                 (None, 256)          803072      flatten_1[0][0]                  \n","__________________________________________________________________________________________________\n","dense_2 (Dense)                 (None, 6, 6, 256)    16640       max_pooling2d_1[0][0]            \n","__________________________________________________________________________________________________\n","activation_1 (Activation)       (None, 256)          0           dense_1[0][0]                    \n","__________________________________________________________________________________________________\n","flatten_2 (Flatten)             (None, 9216)         0           dense_2[0][0]                    \n","__________________________________________________________________________________________________\n","concatenate_1 (Concatenate)     (None, 9472)         0           activation_1[0][0]               \n","                                                                 flatten_2[0][0]                  \n","__________________________________________________________________________________________________\n","activation_4 (Activation)       (None, 9472)         0           concatenate_1[0][0]              \n","__________________________________________________________________________________________________\n","dropout_3 (Dropout)             (None, 9472)         0           activation_4[0][0]               \n","__________________________________________________________________________________________________\n","dense_3 (Dense)                 (None, 128)          1212544     dropout_3[0][0]                  \n","__________________________________________________________________________________________________\n","activation_5 (Activation)       (None, 128)          0           dense_3[0][0]                    \n","__________________________________________________________________________________________________\n","dropout_4 (Dropout)             (None, 128)          0           activation_5[0][0]               \n","__________________________________________________________________________________________________\n","dense_4 (Dense)                 (None, 1)            129         dropout_4[0][0]                  \n","==================================================================================================\n","Total params: 3,489,553\n","Trainable params: 3,489,233\n","Non-trainable params: 320\n","__________________________________________________________________________________________________\n","None\n","Prepping data\n","Decoding speed data\n","loaded
…
