…
> physical GPU (device: 0, name: Tesla P100-PCIE-16GB, pci bus id: 0000:00:04.0, compute capability: 6.0)\n","speedchallenge.py:225: UserWarning: Update your `Conv2D` call to the Keras 2 API: `Conv2D(128, (8, 8), strides=(4, 4), padding=\"same\")`\n","  op_flow=(Convolution2D(128, 8,8 ,border_mode='same', subsample=(4,4)))(op_flow)\n","Model: \"model_1\"\n","_________________________________________________________________\n","Layer (type)                 Output Shape              Param #   \n","=================================================================\n","input_2 (InputLayer)         (None, 100, 100, 2)       0         \n","_________________________________________________________________\n","conv2d_1 (Conv2D)            (None, 25, 25, 32)        4128      \n","_________________________________________________________________\n","activation_1 (Activation)    (None, 25, 25, 32)        0         \n","_________________________________________________________________\n","batch_normalization_1 (Batch (None, 25, 25, 32)        128       \n","_________________________________________________________________\n","dropout_1 (Dropout)          (None, 25, 25, 32)        0         \n","_________________________________________________________________\n","conv2d_2 (Conv2D)            (None, 7, 7, 128)         262272    \n","_________________________________________________________________\n","activation_2 (Activation)    (None, 7, 7, 128)         0         \n","_________________________________________________________________\n","batch_normalization_2 (Batch (None, 7, 7, 128)         512       \n","_________________________________________________________________\n","dropout_2 (Dropout)          (None, 7, 7, 128)         0         \n","_________________________________________________________________\n","max_pooling2d_1 (MaxPooling2 (None, 6, 6, 128)         0         \n","_________________________________________________________________\n","dense_1 (Dense)              (None, 6, 6, 256)         33024     \n","_________________________________________________________________\n","flatten_1 (Flatten)          (None, 9216)              0         \n","_________________________________________________________________\n","activation_3 (Activation)    (None, 9216)              0         \n","_________________________________________________________________\n","dropout_3 (Dropout)          (None, 9216)              0         \n","_________________________________________________________________\n","dense_2 (Dense)              (None, 128)               1179776   \n","_________________________________________________________________\n","activation_4 (Activation)    (None, 128)               0         \n","_________________________________________________________________\n","dropout_4 (Dropout)          (None, 128)               0         \n","_________________________________________________________________\n","dense_3 (Dense)              (None, 1)                 129       \n","=================================================================\n","Total params: 1,479,969\n","Trainable params: 1,479,649\n","Non-trainable params: 320\n","_________________________________________________________________\n","None\n","Prepping data\n","Decoding speed data\n","loaded 20399 speed entries\n","wiping preprocessed data...\n","preprocessing data...\n","Processed 20398 fr
…
