…
np)\n","speedchallenge.py:241: UserWarning: Update your `Conv2D` call to the Keras 2 API: `Conv2D(128, (8, 8), strides=(4, 4), padding=\"same\")`\n","  op_flow=(Convolution2D(128, 8,8 ,border_mode='same', subsample=(4,4)))(op_flow)\n","Model: \"model_1\"\n","__________________________________________________________________________________________________\n","Layer (type)                    Output Shape         Param #     Connected to                     \n","==================================================================================================\n","input_2 (InputLayer)            (None, 100, 100, 2)  0                                            \n","__________________________________________________________________________________________________\n","conv2d_1 (Conv2D)               (None, 25, 25, 32)   4128        input_2[0][0]                    \n","__________________________________________________________________________________________________\n","activation_2 (Activation)       (None, 25, 25, 32)   0           conv2d_1[0][0]                   \n","__________________________________________________________________________________________________\n","batch_normalization_3 (BatchNor (None, 25, 25, 32)   128         activation_2[0][0]               \n","__________________________________________________________________________________________________\n","dropout_1 (Dropout)             (None, 25, 25, 32)   0           batch_normalization_3[0][0]      \n","__________________________________________________________________________________________________\n","input_1 (InputLayer)            (None, 2, 100, 100,  0                                            \n","__________________________________________________________________________________________________\n","max_pooling2d_1 (MaxPooling2D)  (None, 24, 24, 32)   0           dropout_1[0][0]                  \n","__________________________________________________________________________________________________\n","conv_lst_m2d_1 (ConvLSTM2D)     (None, 2, 25, 25, 32 286848      input_1[0][0]                    \n","__________________________________________________________________________________________________\n","conv2d_2 (Conv2D)               (None, 6, 6, 128)    262272      max_pooling2d_1[0][0]            \n","__________________________________________________________________________________________________\n","batch_normalization_1 (BatchNor (None, 2, 25, 25, 32 128         conv_lst_m2d_1[0][0]             \n","__________________________________________________________________________________________________\n","activation_3 (Activation)       (None, 6, 6, 128)    0           conv2d_2[0][0]                   \n","__________________________________________________________________________________________________\n","conv_lst_m2d_2 (ConvLSTM2D)     (None, 7, 7, 128)    5243392     batch_normalization_1[0][0]      \n","__________________________________________________________________________________________________\n","batch_normalization_4 (BatchNor (None, 6, 6, 128)    512         activation_3[0][0]               \n","__________________________________________________________________________________________________\n","batch_normalization_2 (BatchNor (None, 7, 7, 128)    512         conv_lst_m2d_2[0][0]             \n","__________________________________________________________________________________________________\n","dropout_2 (Dropout)             (None, 6, 6, 128)    0           batch_normalization_4[0][0]      \n","__________________________________________________________________________________________________\n","flatten_1 (Flatten)             (None, 6272)         0           batch_normalization_2[0][0]      \n","__________________________________________________________________________________________________\n","max_pooling2d_2 (MaxPooling2D)  (None, 5, 5, 128)    0           dropout_2[0][0]                  \n","__________________________________________________________________________________________________\n","dense_1 (Dense)                 (None, 256)          1605888     flatten_1[0][0]                  \n","__________________________________________________________________________________________________\n","dense_2 (Dense)                 (None, 5, 5, 256)    33024       max_pooling2d_2[0][0]            \n","__________________________________________________________________________________________________\n","activation_1 (Activation)       (None, 256)          0           dense_1[0][0]                    \n","__________________________________________________________________________________________________\n","flatten_2 (Flatten)             (None, 6400)         0           dense_2[0][0]                    \n","__________________________________________________________________________________________________\n","concatenate_1 (Concatenate)     (None, 6656)         0           activation_1[0][0]               \n","                                                                 flatten_2[0][0]                  \n","__________________________________________________________________________________________________\n","activation_4 (Activation)       (None, 6656)         0           concatenate_1[0][0]              \n","__________________________________________________________________________________________________\n","dropout_3 (Dropout)             (None, 6656)         0           activation_4[0][0]               \n","__________________________________________________________________________________________________\n","dense_3 (Dense)                 (None, 128)          852096      dropout_3[0][0]                  \n","__________________________________________________________________________________________________\n","activation_5 (Activation)       (None, 128)          0           dense_3[0][0]                    \n","__________________________________________________________________________________________________\n","dropout_4 (Dropout)             (None, 128)          0           activation_5[0][0]               \n","__________________________________________________________________________________________________\n","dense_4 (Dense)                 (None, 1)            129         dropout_4[0][0]                  \n","==================================================================================================\n","Total params: 8,289,057\n","Trainable params: 8,288,417\n","Non-trainable params: 640\n","__________________________________________________________________________________________________\n","None\n","Prepping data\n","Decoding speed data\n","loaded
…
